…
training args are: Namespace(data_path='data/EuroCity.yaml', conf_file='configs/yolov6_lite/yolov6_lite_l.py', img_size=256, rect=False, batch_size=256, epochs=100, workers=8, device='0', eval_interval=20, eval_final_only=False, heavy_eval_range=50, check_images=False, check_labels=False, output_dir='./runs/train', name='exp', dist_url='env://', gpu_count=0, local_rank=-1, resume=False, write_trainbatch_tb=False, stop_aug_last_n_epoch=15, save_ckpt_on_last_n_epoch=-1, distill=False, distill_feat=False, quant=False, calib=False, teacher_model_path=None, temperature=20, fuse_ab=False, bs_per_gpu=32, specific_shape=False, height=None, width=None, rank=-1, world_size=1, save_dir='runs/train/exp25')

Model: Model(
  (backbone): Lite_EffiBackbone(
    (conv_0): ConvBNHS(
      (block): ConvModule(
        (conv): Conv2d(3, 24, kernel_size=(3, 3), stride=(2, 2), padding=(1, 1), bias=False)
        (bn): BatchNorm2d(24, eps=0.001, momentum=0.03, affine=True, track_running_stats=True)
        (act): Hardswish()
      )
    )
    (lite_effiblock_1): Sequential(
      (0): Lite_EffiBlockS2(
        (conv_dw_1): ConvBN(
          (block): ConvModule(
            (conv): Conv2d(24, 24, kernel_size=(3, 3), stride=(2, 2), padding=(1, 1), groups=24, bias=False)
            (bn): BatchNorm2d(24, eps=0.001, momentum=0.03, affine=True, track_running_stats=True)
          )
        )
        (conv_1): ConvBNHS(
          (block): ConvModule(
            (conv): Conv2d(24, 24, kernel_size=(1, 1), stride=(1, 1), bias=False)
            (bn): BatchNorm2d(24, eps=0.001, momentum=0.03, affine=True, track_running_stats=True)
            (act): Hardswish()
          )
        )
        (conv_pw_2): ConvBNHS(
          (block): ConvModule(
            (conv): Conv2d(24, 12, kernel_size=(1, 1), stride=(1, 1), bias=False)
            (bn): BatchNorm2d(12, eps=0.001, momentum=0.03, affine=True, track_running_stats=True)
            (act): Hardswish()
          )
        )
        (conv_dw_2): ConvBN(
          (block): ConvModule(
            (conv): Conv2d(12, 12, kernel_size=(3, 3), stride=(2, 2), padding=(1, 1), groups=12, bias=False)
            (bn): BatchNorm2d(12, eps=0.001, momentum=0.03, affine=True, track_running_stats=True)
          )
        )
        (se): SEBlock(
          (avg_pool): AdaptiveAvgPool2d(output_size=1)
          (conv1): Conv2d(12, 3, kernel_size=(1, 1), stride=(1, 1))
          (relu): ReLU(inplace=True)
          (conv2): Conv2d(3, 12, kernel_size=(1, 1), stride=(1, 1))
          (hardsigmoid): Hardsigmoid()
        )
        (conv_2): ConvBNHS(
          (block): ConvModule(
            (conv): Conv2d(12, 24, kernel_size=(1, 1), stride=(1, 1), bias=False)
            (bn): BatchNorm2d(24, eps=0.001, momentum=0.03, affine=True, track_running_stats=True)
            (act): Hardswish()
          )
        )
        (conv_dw_3): ConvBNHS(
          (block): ConvModule(
            (conv): Conv2d(48, 48, kernel_size=(3, 3), stride=(1, 1), padding=(1, 1), groups=48, bias=False)
            (bn): BatchNorm2d(48, eps=0.001, momentum=0.03, affine=True, track_running_stats=True)
            (act): Hardswish()
          )
        )
        (conv_pw_3): ConvBNHS(
          (block): ConvModule(
            (conv): Conv2d(48, 48, kernel_size=(1, 1), stride=(1, 1), bias=False)
            (bn): BatchNorm2d(48, eps=0.001, momentum=0.03, affine=True, track_running_stats=True)
            (act): Hardswish()
          )
        )
      )
    )
    (lite_effiblock_2): Sequential(
      (0): Lite_EffiBlockS2(
        (conv_dw_1): ConvBN(
          (block): ConvModule(
            (conv): Conv2d(48, 48, kernel_size=(3, 3), stride=(2, 2), padding=(1, 1), groups=48, bias=False)
            (bn): BatchNorm2d(48, eps=0.001, momentum=0.03, affine=True, track_running_stats=True)
          )
        )
        (conv_1): ConvBNHS(
          (block): ConvModule(
            (conv): Conv2d(48, 48, kernel_size=(1, 1), stride=(1, 1), bias=False)
            (bn): BatchNorm2d(48, eps=0.001, momentum=0.03, affine=True, track_running_stats=True)
            (act): Hardswish()
          )
        )
        (conv_pw_2): ConvBNHS(
          (block): ConvModule(
            (conv): Conv2d(48, 24, kernel_size=(1, 1), stride=(1, 1), bias=False)
            (bn): BatchNorm2d(24, eps=0.001, momentum=0.03, affine=True, track_running_stats=True)
            (act): Hardswish()
          )
        )
        (conv_dw_2): ConvBN(
          (block): ConvModule(
            (conv): Conv2d(24, 24, kernel_size=(3, 3), stride=(2, 2), padding=(1, 1), groups=24, bias=False)
            (bn): BatchNorm2d(24, eps=0.001, momentum=0.03, affine=True, track_running_stats=True)
          )
        )
        (se): SEBlock(
          (avg_pool): AdaptiveAvgPool2d(output_size=1)
          (conv1): Conv2d(24, 6, kernel_size=(1, 1), stride=(1, 1))
          (relu): ReLU(inplace=True)
          (conv2): Conv2d(6, 24, kernel_size=(1, 1), stride=(1, 1))
          (hardsigmoid): Hardsigmoid()
        )
        (conv_2): ConvBNHS(
          (block): ConvModule(
            (conv): Conv2d(24, 48, kernel_size=(1, 1), stride=(1, 1), bias=False)
            (bn): BatchNorm2d(48, eps=0.001, momentum=0.03, affine=True, track_running_stats=True)
            (act): Hardswish()
          )
        )
        (conv_dw_3): ConvBNHS(
          (block): ConvModule(
            (conv): Conv2d(96, 96, kernel_size=(3, 3), stride=(1, 1), padding=(1, 1), groups=96, bias=False)
            (bn): BatchNorm2d(96, eps=0.001, momentum=0.03, affine=True, track_running_stats=True)
            (act): Hardswish()
          )
        )
        (conv_pw_3): ConvBNHS(
          (block): ConvModule(
            (conv): Conv2d(96, 96, kernel_size=(1, 1), stride=(1, 1), bias=False)
            (bn): BatchNorm2d(96, eps=0.001, momentum=0.03, affine=True, track_running_stats=True)
            (act): Hardswish()
          )
        )
      )
      (1): Lite_EffiBlockS1(
        (conv_pw_1): ConvBNHS(
          (block): ConvModule(
            (conv): Conv2d(48, 48, kernel_size=(1, 1), stride=(1, 1), bias=False)
            (bn): BatchNorm2d(48, eps=0.001, momentum=0.03, affine=True, track_running_stats=True)
            (act): Hardswish()
          )
        )
        (conv_dw_1): ConvBN(
          (block): ConvModule(
            (conv): Conv2d(48, 48, kernel_size=(3, 3), stride=(1, 1), padding=(1, 1), groups=48, bias=False)
            (bn): BatchNorm2d(48, eps=0.001, momentum=0.03, affine=True, track_running_stats=True)
          )
        )
        (se): SEBlock(
          (avg_pool): AdaptiveAvgPool2d(output_size=1)
          (conv1): Conv2d(48, 12, kernel_size=(1, 1), stride=(1, 1))
          (relu): ReLU(inplace=True)
          (conv2): Conv2d(12, 48, kernel_size=(1, 1), stride=(1, 1))
          (hardsigmoid): Hardsigmoid()
        )
        (conv_1): ConvBNHS(
          (block): ConvModule(
            (conv): Conv2d(48, 48, kernel_size=(1, 1), stride=(1, 1), bias=False)
            (bn): BatchNorm2d(48, eps=0.001, momentum=0.03, affine=True, track_running_stats=True)
            (act): Hardswish()
          )
        )
      )
      (2): Lite_EffiBlockS1(
        (conv_pw_1): ConvBNHS(
          (block): ConvModule(
            (conv): Conv2d(48, 48, kernel_size=(1, 1), stride=(1, 1), bias=False)
            (bn): BatchNorm2d(48, eps=0.001, momentum=0.03, affine=True, track_running_stats=True)
            (act): Hardswish()
          )
        )
        (conv_dw_1): ConvBN(
          (block): ConvModule(
            (conv): Conv2d(48, 48, kernel_size=(3, 3), stride=(1, 1), padding=(1, 1), groups=48, bias=False)
            (bn): BatchNorm2d(48, eps=0.001, momentum=0.03, affine=True, track_running_stats=True)
          )
        )
        (se): SEBlock(
          (avg_pool): AdaptiveAvgPool2d(output_size=1)
          (conv1): Conv2d(48, 12, kernel_size=(1, 1), stride=(1, 1))
          (relu): ReLU(inplace=True)
          (conv2): Conv2d(12, 48, kernel_size=(1, 1), stride=(1, 1))
          (hardsigmoid): Hardsigmoid()
        )
        (conv_1): ConvBNHS(
          (block): ConvModule(
            (conv): Conv2d(48, 48, kernel_size=(1, 1), stride=(1, 1), bias=False)
            (bn): BatchNorm2d(48, eps=0.001, momentum=0.03, affine=True, track_running_stats=True)
            (act): Hardswish()
          )
        )
      )
    )
    (lite_effiblock_3): Sequential(
      (0): Lite_EffiBlockS2(
        (conv_dw_1): ConvBN(
          (block): ConvModule(
            (conv): Conv2d(96, 96, kernel_size=(3, 3), stride=(2, 2), padding=(1, 1), groups=96, bias=False)
            (bn): BatchNorm2d(96, eps=0.001, momentum=0.03, affine=True, track_running_stats=True)
          )
        )
        (conv_1): ConvBNHS(
          (block): ConvModule(
            (conv): Conv2d(96, 96, kernel_size=(1, 1), stride=(1, 1), bias=False)
            (bn): BatchNorm2d(96, eps=0.001, momentum=0.03, affine=True, track_running_stats=True)
            (act): Hardswish()
          )
        )
        (conv_pw_2): ConvBNHS(
          (block): ConvModule(
            (conv): Conv2d(96, 48, kernel_size=(1, 1), stride=(1, 1), bias=False)
            (bn): BatchNorm2d(48, eps=0.001, momentum=0.03, affine=True, track_running_stats=True)
            (act): Hardswish()
          )
        )
        (conv_dw_2): ConvBN(
          (block): ConvModule(
            (conv): Conv2d(48, 48, kernel_size=(3, 3), stride=(2, 2), padding=(1, 1), groups=48, bias=False)
            (bn): BatchNorm2d(48, eps=0.001, momentum=0.03, affine=True, track_running_stats=True)
          )
        )
        (se): SEBlock(
          (avg_pool): AdaptiveAvgPool2d(output_size=1)
          (conv1): Conv2d(48, 12, kernel_size=(1, 1), stride=(1, 1))
          (relu): ReLU(inplace=True)
          (conv2): Conv2d(12, 48, kernel_size=(1, 1), stride=(1, 1))
          (hardsigmoid): Hardsigmoid()
        )
        (conv_2): ConvBNHS(
          (block): ConvModule(
            (conv): Conv2d(48, 96, kernel_size=(1, 1), stride=(1, 1), bias=False)
            (bn): BatchNorm2d(96, eps=0.001, momentum=0.03, affine=True, track_running_stats=True)
            (act): Hardswish()
          )
        )
        (conv_dw_3): ConvBNHS(
          (block): ConvModule(
            (conv): Conv2d(192, 192, kernel_size=(3, 3), stride=(1, 1), padding=(1, 1), groups=192, bias=False)
            (bn): BatchNorm2d(192, eps=0.001, momentum=0.03, affine=True, track_running_stats=True)
            (act): Hardswish()
          )
        )
        (conv_pw_3): ConvBNHS(
          (block): ConvModule(
            (conv): Conv2d(192, 192, kernel_size=(1, 1), stride=(1, 1), bias=False)
            (bn): BatchNorm2d(192, eps=0.001, momentum=0.03, affine=True, track_running_stats=True)
            (act): Hardswish()
          )
        )
      )
      (1): Lite_EffiBlockS1(
        (conv_pw_1): ConvBNHS(
          (block): ConvModule(
            (conv): Conv2d(96, 96, kernel_size=(1, 1), stride=(1, 1), bias=False)
            (bn): BatchNorm2d(96, eps=0.001, momentum=0.03, affine=True, track_running_stats=True)
            (act): Hardswish()
          )
        )
        (conv_dw_1): ConvBN(
          (block): ConvModule(
            (conv): Conv2d(96, 96, kernel_size=(3, 3), stride=(1, 1), padding=(1, 1), groups=96, bias=False)
            (bn): BatchNorm2d(96, eps=0.001, momentum=0.03, affine=True, track_running_stats=True)
          )
        )
        (se): SEBlock(
          (avg_pool): AdaptiveAvgPool2d(output_size=1)
          (conv1): Conv2d(96, 24, kernel_size=(1, 1), stride=(1, 1))
          (relu): ReLU(inplace=True)
          (conv2): Conv2d(24, 96, kernel_size=(1, 1), stride=(1, 1))
          (hardsigmoid): Hardsigmoid()
        )
        (conv_1): ConvBNHS(
          (block): ConvModule(
            (conv): Conv2d(96, 96, kernel_size=(1, 1), stride=(1, 1), bias=False)
            (bn): BatchNorm2d(96, eps=0.001, momentum=0.03, affine=True, track_running_stats=True)
            (act): Hardswish()
          )
        )
      )
      (2): Lite_EffiBlockS1(
        (conv_pw_1): ConvBNHS(
          (block): ConvModule(
            (conv): Conv2d(96, 96, kernel_size=(1, 1), stride=(1, 1), bias=False)
            (bn): BatchNorm2d(96, eps=0.001, momentum=0.03, affine=True, track_running_stats=True)
            (act): Hardswish()
          )
        )
        (conv_dw_1): ConvBN(
          (block): ConvModule(
            (conv): Conv2d(96, 96, kernel_size=(3, 3), stride=(1, 1), padding=(1, 1), groups=96, bias=False)
            (bn): BatchNorm2d(96, eps=0.001, momentum=0.03, affine=True, track_running_stats=True)
          )
        )
        (se): SEBlock(
          (avg_pool): AdaptiveAvgPool2d(output_size=1)
          (conv1): Conv2d(96, 24, kernel_size=(1, 1), stride=(1, 1))
          (relu): ReLU(inplace=True)
          (conv2): Conv2d(24, 96, kernel_size=(1, 1), stride=(1, 1))
          (hardsigmoid): Hardsigmoid()
        )
        (conv_1): ConvBNHS(
          (block): ConvModule(
            (conv): Conv2d(96, 96, kernel_size=(1, 1), stride=(1, 1), bias=False)
            (bn): BatchNorm2d(96, eps=0.001, momentum=0.03, affine=True, track_running_stats=True)
            (act): Hardswish()
          )
        )
      )
      (3): Lite_EffiBlockS1(
        (conv_pw_1): ConvBNHS(
          (block): ConvModule(
            (conv): Conv2d(96, 96, kernel_size=(1, 1), stride=(1, 1), bias=False)
            (bn): BatchNorm2d(96, eps=0.001, momentum=0.03, affine=True, track_running_stats=True)
            (act): Hardswish()
          )
        )
        (conv_dw_1): ConvBN(
          (block): ConvModule(
            (conv): Conv2d(96, 96, kernel_size=(3, 3), stride=(1, 1), padding=(1, 1), groups=96, bias=False)
            (bn): BatchNorm2d(96, eps=0.001, momentum=0.03, affine=True, track_running_stats=True)
          )
        )
        (se): SEBlock(
          (avg_pool): AdaptiveAvgPool2d(output_size=1)
          (conv1): Conv2d(96, 24, kernel_size=(1, 1), stride=(1, 1))
          (relu): ReLU(inplace=True)
          (conv2): Conv2d(24, 96, kernel_size=(1, 1), stride=(1, 1))
          (hardsigmoid): Hardsigmoid()
        )
        (conv_1): ConvBNHS(
          (block): ConvModule(
            (conv): Conv2d(96, 96, kernel_size=(1, 1), stride=(1, 1), bias=False)
            (bn): BatchNorm2d(96, eps=0.001, momentum=0.03, affine=True, track_running_stats=True)
            (act): Hardswish()
          )
        )
      )
      (4): Lite_EffiBlockS1(
        (conv_pw_1): ConvBNHS(
          (block): ConvModule(
            (conv): Conv2d(96, 96, kernel_size=(1, 1), stride=(1, 1), bias=False)
            (bn): BatchNorm2d(96, eps=0.001, momentum=0.03, affine=True, track_running_stats=True)
            (act): Hardswish()
          )
        )
        (conv_dw_1): ConvBN(
          (block): ConvModule(
            (conv): Conv2d(96, 96, kernel_size=(3, 3), stride=(1, 1), padding=(1, 1), groups=96, bias=False)
            (bn): BatchNorm2d(96, eps=0.001, momentum=0.03, affine=True, track_running_stats=True)
          )
        )
        (se): SEBlock(
          (avg_pool): AdaptiveAvgPool2d(output_size=1)
          (conv1): Conv2d(96, 24, kernel_size=(1, 1), stride=(1, 1))
          (relu): ReLU(inplace=True)
          (conv2): Conv2d(24, 96, kernel_size=(1, 1), stride=(1, 1))
          (hardsigmoid): Hardsigmoid()
        )
        (conv_1): ConvBNHS(
          (block): ConvModule(
            (conv): Conv2d(96, 96, kernel_size=(1, 1), stride=(1, 1), bias=False)
            (bn): BatchNorm2d(96, eps=0.001, momentum=0.03, affine=True, track_running_stats=True)
            (act): Hardswish()
          )
        )
      )
      (5): Lite_EffiBlockS1(
        (conv_pw_1): ConvBNHS(
          (block): ConvModule(
            (conv): Conv2d(96, 96, kernel_size=(1, 1), stride=(1, 1), bias=False)
            (bn): BatchNorm2d(96, eps=0.001, momentum=0.03, affine=True, track_running_stats=True)
            (act): Hardswish()
          )
        )
        (conv_dw_1): ConvBN(
          (block): ConvModule(
            (conv): Conv2d(96, 96, kernel_size=(3, 3), stride=(1, 1), padding=(1, 1), groups=96, bias=False)
            (bn): BatchNorm2d(96, eps=0.001, momentum=0.03, affine=True, track_running_stats=True)
          )
        )
        (se): SEBlock(
          (avg_pool): AdaptiveAvgPool2d(output_size=1)
          (conv1): Conv2d(96, 24, kernel_size=(1, 1), stride=(1, 1))
          (relu): ReLU(inplace=True)
          (conv2): Conv2d(24, 96, kernel_size=(1, 1), stride=(1, 1))
          (hardsigmoid): Hardsigmoid()
        )
        (conv_1): ConvBNHS(
          (block): ConvModule(
            (conv): Conv2d(96, 96, kernel_size=(1, 1), stride=(1, 1), bias=False)
            (bn): BatchNorm2d(96, eps=0.001, momentum=0.03, affine=True, track_running_stats=True)
            (act): Hardswish()
          )
        )
      )
      (6): Lite_EffiBlockS1(
        (conv_pw_1): ConvBNHS(
          (block): ConvModule(
            (conv): Conv2d(96, 96, kernel_size=(1, 1), stride=(1, 1), bias=False)
            (bn): BatchNorm2d(96, eps=0.001, momentum=0.03, affine=True, track_running_stats=True)
            (act): Hardswish()
          )
        )
        (conv_dw_1): ConvBN(
          (block): ConvModule(
            (conv): Conv2d(96, 96, kernel_size=(3, 3), stride=(1, 1), padding=(1, 1), groups=96, bias=False)
            (bn): BatchNorm2d(96, eps=0.001, momentum=0.03, affine=True, track_running_stats=True)
          )
        )
        (se): SEBlock(
          (avg_pool): AdaptiveAvgPool2d(output_size=1)
          (conv1): Conv2d(96, 24, kernel_size=(1, 1), stride=(1, 1))
          (relu): ReLU(inplace=True)
          (conv2): Conv2d(24, 96, kernel_size=(1, 1), stride=(1, 1))
          (hardsigmoid): Hardsigmoid()
        )
        (conv_1): ConvBNHS(
          (block): ConvModule(
            (conv): Conv2d(96, 96, kernel_size=(1, 1), stride=(1, 1), bias=False)
            (bn): BatchNorm2d(96, eps=0.001, momentum=0.03, affine=True, track_running_stats=True)
            (act): Hardswish()
          )
        )
      )
    )
    (lite_effiblock_4): Sequential(
      (0): Lite_EffiBlockS2(
        (conv_dw_1): ConvBN(
          (block): ConvModule(
            (conv): Conv2d(192, 192, kernel_size=(3, 3), stride=(2, 2), padding=(1, 1), groups=192, bias=False)
            (bn): BatchNorm2d(192, eps=0.001, momentum=0.03, affine=True, track_running_stats=True)
          )
        )
        (conv_1): ConvBNHS(
          (block): ConvModule(
            (conv): Conv2d(192, 192, kernel_size=(1, 1), stride=(1, 1), bias=False)
            (bn): BatchNorm2d(192, eps=0.001, momentum=0.03, affine=True, track_running_stats=True)
            (act): Hardswish()
          )
        )
        (conv_pw_2): ConvBNHS(
          (block): ConvModule(
            (conv): Conv2d(192, 96, kernel_size=(1, 1), stride=(1, 1), bias=False)
            (bn): BatchNorm2d(96, eps=0.001, momentum=0.03, affine=True, track_running_stats=True)
            (act): Hardswish()
          )
        )
        (conv_dw_2): ConvBN(
          (block): ConvModule(
            (conv): Conv2d(96, 96, kernel_size=(3, 3), stride=(2, 2), padding=(1, 1), groups=96, bias=False)
            (bn): BatchNorm2d(96, eps=0.001, momentum=0.03, affine=True, track_running_stats=True)
          )
        )
        (se): SEBlock(
          (avg_pool): AdaptiveAvgPool2d(output_size=1)
          (conv1): Conv2d(96, 24, kernel_size=(1, 1), stride=(1, 1))
          (relu): ReLU(inplace=True)
          (conv2): Conv2d(24, 96, kernel_size=(1, 1), stride=(1, 1))
          (hardsigmoid): Hardsigmoid()
        )
        (conv_2): ConvBNHS(
          (block): ConvModule(
            (conv): Conv2d(96, 192, kernel_size=(1, 1), stride=(1, 1), bias=False)
            (bn): BatchNorm2d(192, eps=0.001, momentum=0.03, affine=True, track_running_stats=True)
            (act): Hardswish()
          )
        )
        (conv_dw_3): ConvBNHS(
          (block): ConvModule(
            (conv): Conv2d(384, 384, kernel_size=(3, 3), stride=(1, 1), padding=(1, 1), groups=384, bias=False)
            (bn): BatchNorm2d(384, eps=0.001, momentum=0.03, affine=True, track_running_stats=True)
            (act): Hardswish()
          )
        )
        (conv_pw_3): ConvBNHS(
          (block): ConvModule(
            (conv): Conv2d(384, 384, kernel_size=(1, 1), stride=(1, 1), bias=False)
            (bn): BatchNorm2d(384, eps=0.001, momentum=0.03, affine=True, track_running_stats=True)
            (act): Hardswish()
          )
        )
      )
      (1): Lite_EffiBlockS1(
        (conv_pw_1): ConvBNHS(
          (block): ConvModule(
            (conv): Conv2d(192, 192, kernel_size=(1, 1), stride=(1, 1), bias=False)
            (bn): BatchNorm2d(192, eps=0.001, momentum=0.03, affine=True, track_running_stats=True)
            (act): Hardswish()
          )
        )
        (conv_dw_1): ConvBN(
          (block): ConvModule(
            (conv): Conv2d(192, 192, kernel_size=(3, 3), stride=(1, 1), padding=(1, 1), groups=192, bias=False)
            (bn): BatchNorm2d(192, eps=0.001, momentum=0.03, affine=True, track_running_stats=True)
          )
        )
        (se): SEBlock(
          (avg_pool): AdaptiveAvgPool2d(output_size=1)
          (conv1): Conv2d(192, 48, kernel_size=(1, 1), stride=(1, 1))
          (relu): ReLU(inplace=True)
          (conv2): Conv2d(48, 192, kernel_size=(1, 1), stride=(1, 1))
          (hardsigmoid): Hardsigmoid()
        )
        (conv_1): ConvBNHS(
          (block): ConvModule(
            (conv): Conv2d(192, 192, kernel_size=(1, 1), stride=(1, 1), bias=False)
            (bn): BatchNorm2d(192, eps=0.001, momentum=0.03, affine=True, track_running_stats=True)
            (act): Hardswish()
          )
        )
      )
      (2): Lite_EffiBlockS1(
        (conv_pw_1): ConvBNHS(
          (block): ConvModule(
            (conv): Conv2d(192, 192, kernel_size=(1, 1), stride=(1, 1), bias=False)
            (bn): BatchNorm2d(192, eps=0.001, momentum=0.03, affine=True, track_running_stats=True)
            (act): Hardswish()
          )
        )
        (conv_dw_1): ConvBN(
          (block): ConvModule(
            (conv): Conv2d(192, 192, kernel_size=(3, 3), stride=(1, 1), padding=(1, 1), groups=192, bias=False)
            (bn): BatchNorm2d(192, eps=0.001, momentum=0.03, affine=True, track_running_stats=True)
          )
        )
        (se): SEBlock(
          (avg_pool): AdaptiveAvgPool2d(output_size=1)
          (conv1): Conv2d(192, 48, kernel_size=(1, 1), stride=(1, 1))
          (relu): ReLU(inplace=True)
          (conv2): Conv2d(48, 192, kernel_size=(1, 1), stride=(1, 1))
          (hardsigmoid): Hardsigmoid()
        )
        (conv_1): ConvBNHS(
          (block): ConvModule(
            (conv): Conv2d(192, 192, kernel_size=(1, 1), stride=(1, 1), bias=False)
            (bn): BatchNorm2d(192, eps=0.001, momentum=0.03, affine=True, track_running_stats=True)
            (act): Hardswish()
          )
        )
      )
    )
  )
  (neck): Lite_EffiNeck(
    (reduce_layer0): ConvBNHS(
      (block): ConvModule(
        (conv): Conv2d(384, 96, kernel_size=(1, 1), stride=(1, 1), bias=False)
        (bn): BatchNorm2d(96, eps=0.001, momentum=0.03, affine=True, track_running_stats=True)
        (act): Hardswish()
      )
    )
    (reduce_layer1): ConvBNHS(
      (block): ConvModule(
        (conv): Conv2d(192, 96, kernel_size=(1, 1), stride=(1, 1), bias=False)
        (bn): BatchNorm2d(96, eps=0.001, momentum=0.03, affine=True, track_running_stats=True)
        (act): Hardswish()
      )
    )
    (reduce_layer2): ConvBNHS(
      (block): ConvModule(
        (conv): Conv2d(96, 96, kernel_size=(1, 1), stride=(1, 1), bias=False)
        (bn): BatchNorm2d(96, eps=0.001, momentum=0.03, affine=True, track_running_stats=True)
        (act): Hardswish()
      )
    )
    (upsample0): Upsample(scale_factor=2.0, mode='nearest')
    (upsample1): Upsample(scale_factor=2.0, mode='nearest')
    (Csp_p4): CSPBlock(
      (conv_1): ConvBNHS(
        (block): ConvModule(
          (conv): Conv2d(192, 48, kernel_size=(1, 1), stride=(1, 1), bias=False)
          (bn): BatchNorm2d(48, eps=0.001, momentum=0.03, affine=True, track_running_stats=True)
          (act): Hardswish()
        )
      )
      (conv_2): ConvBNHS(
        (block): ConvModule(
          (conv): Conv2d(192, 48, kernel_size=(1, 1), stride=(1, 1), bias=False)
          (bn): BatchNorm2d(48, eps=0.001, momentum=0.03, affine=True, track_running_stats=True)
          (act): Hardswish()
        )
      )
      (conv_3): ConvBNHS(
        (block): ConvModule(
          (conv): Conv2d(96, 96, kernel_size=(1, 1), stride=(1, 1), bias=False)
          (bn): BatchNorm2d(96, eps=0.001, momentum=0.03, affine=True, track_running_stats=True)
          (act): Hardswish()
        )
      )
      (blocks): DarknetBlock(
        (conv_1): ConvBNHS(
          (block): ConvModule(
            (conv): Conv2d(48, 48, kernel_size=(1, 1), stride=(1, 1), bias=False)
            (bn): BatchNorm2d(48, eps=0.001, momentum=0.03, affine=True, track_running_stats=True)
            (act): Hardswish()
          )
        )
        (conv_2): DPBlock(
          (conv_dw_1): Conv2d(48, 48, kernel_size=(5, 5), stride=(1, 1), padding=(2, 2), groups=48)
          (bn_1): BatchNorm2d(48, eps=0.001, momentum=0.03, affine=True, track_running_stats=True)
          (act_1): Hardswish()
          (conv_pw_1): Conv2d(48, 48, kernel_size=(1, 1), stride=(1, 1))
          (bn_2): BatchNorm2d(48, eps=0.001, momentum=0.03, affine=True, track_running_stats=True)
          (act_2): Hardswish()
        )
      )
    )
    (Csp_p3): CSPBlock(
      (conv_1): ConvBNHS(
        (block): ConvModule(
          (conv): Conv2d(192, 48, kernel_size=(1, 1), stride=(1, 1), bias=False)
          (bn): BatchNorm2d(48, eps=0.001, momentum=0.03, affine=True, track_running_stats=True)
          (act): Hardswish()
        )
      )
      (conv_2): ConvBNHS(
        (block): ConvModule(
          (conv): Conv2d(192, 48, kernel_size=(1, 1), stride=(1, 1), bias=False)
          (bn): BatchNorm2d(48, eps=0.001, momentum=0.03, affine=True, track_running_stats=True)
          (act): Hardswish()
        )
      )
      (conv_3): ConvBNHS(
        (block): ConvModule(
          (conv): Conv2d(96, 96, kernel_size=(1, 1), stride=(1, 1), bias=False)
          (bn): BatchNorm2d(96, eps=0.001, momentum=0.03, affine=True, track_running_stats=True)
          (act): Hardswish()
        )
      )
      (blocks): DarknetBlock(
        (conv_1): ConvBNHS(
          (block): ConvModule(
            (conv): Conv2d(48, 48, kernel_size=(1, 1), stride=(1, 1), bias=False)
            (bn): BatchNorm2d(48, eps=0.001, momentum=0.03, affine=True, track_running_stats=True)
            (act): Hardswish()
          )
        )
        (conv_2): DPBlock(
          (conv_dw_1): Conv2d(48, 48, kernel_size=(5, 5), stride=(1, 1), padding=(2, 2), groups=48)
          (bn_1): BatchNorm2d(48, eps=0.001, momentum=0.03, affine=True, track_running_stats=True)
          (act_1): Hardswish()
          (conv_pw_1): Conv2d(48, 48, kernel_size=(1, 1), stride=(1, 1))
          (bn_2): BatchNorm2d(48, eps=0.001, momentum=0.03, affine=True, track_running_stats=True)
          (act_2): Hardswish()
        )
      )
    )
    (Csp_n3): CSPBlock(
      (conv_1): ConvBNHS(
        (block): ConvModule(
          (conv): Conv2d(192, 48, kernel_size=(1, 1), stride=(1, 1), bias=False)
          (bn): BatchNorm2d(48, eps=0.001, momentum=0.03, affine=True, track_running_stats=True)
          (act): Hardswish()
        )
      )
      (conv_2): ConvBNHS(
        (block): ConvModule(
          (conv): Conv2d(192, 48, kernel_size=(1, 1), stride=(1, 1), bias=False)
          (bn): BatchNorm2d(48, eps=0.001, momentum=0.03, affine=True, track_running_stats=True)
          (act): Hardswish()
        )
      )
      (conv_3): ConvBNHS(
        (block): ConvModule(
          (conv): Conv2d(96, 96, kernel_size=(1, 1), stride=(1, 1), bias=False)
          (bn): BatchNorm2d(96, eps=0.001, momentum=0.03, affine=True, track_running_stats=True)
          (act): Hardswish()
        )
      )
      (blocks): DarknetBlock(
        (conv_1): ConvBNHS(
          (block): ConvModule(
            (conv): Conv2d(48, 48, kernel_size=(1, 1), stride=(1, 1), bias=False)
            (bn): BatchNorm2d(48, eps=0.001, momentum=0.03, affine=True, track_running_stats=True)
            (act): Hardswish()
          )
        )
        (conv_2): DPBlock(
          (conv_dw_1): Conv2d(48, 48, kernel_size=(5, 5), stride=(1, 1), padding=(2, 2), groups=48)
          (bn_1): BatchNorm2d(48, eps=0.001, momentum=0.03, affine=True, track_running_stats=True)
          (act_1): Hardswish()
          (conv_pw_1): Conv2d(48, 48, kernel_size=(1, 1), stride=(1, 1))
          (bn_2): BatchNorm2d(48, eps=0.001, momentum=0.03, affine=True, track_running_stats=True)
          (act_2): Hardswish()
        )
      )
    )
    (Csp_n4): CSPBlock(
      (conv_1): ConvBNHS(
        (block): ConvModule(
          (conv): Conv2d(192, 48, kernel_size=(1, 1), stride=(1, 1), bias=False)
          (bn): BatchNorm2d(48, eps=0.001, momentum=0.03, affine=True, track_running_stats=True)
          (act): Hardswish()
        )
      )
      (conv_2): ConvBNHS(
        (block): ConvModule(
          (conv): Conv2d(192, 48, kernel_size=(1, 1), stride=(1, 1), bias=False)
          (bn): BatchNorm2d(48, eps=0.001, momentum=0.03, affine=True, track_running_stats=True)
          (act): Hardswish()
        )
      )
      (conv_3): ConvBNHS(
        (block): ConvModule(
          (conv): Conv2d(96, 96, kernel_size=(1, 1), stride=(1, 1), bias=False)
          (bn): BatchNorm2d(96, eps=0.001, momentum=0.03, affine=True, track_running_stats=True)
          (act): Hardswish()
        )
      )
      (blocks): DarknetBlock(
        (conv_1): ConvBNHS(
          (block): ConvModule(
            (conv): Conv2d(48, 48, kernel_size=(1, 1), stride=(1, 1), bias=False)
            (bn): BatchNorm2d(48, eps=0.001, momentum=0.03, affine=True, track_running_stats=True)
            (act): Hardswish()
          )
        )
        (conv_2): DPBlock(
          (conv_dw_1): Conv2d(48, 48, kernel_size=(5, 5), stride=(1, 1), padding=(2, 2), groups=48)
          (bn_1): BatchNorm2d(48, eps=0.001, momentum=0.03, affine=True, track_running_stats=True)
          (act_1): Hardswish()
          (conv_pw_1): Conv2d(48, 48, kernel_size=(1, 1), stride=(1, 1))
          (bn_2): BatchNorm2d(48, eps=0.001, momentum=0.03, affine=True, track_running_stats=True)
          (act_2): Hardswish()
        )
      )
    )
    (downsample2): DPBlock(
      (conv_dw_1): Conv2d(96, 96, kernel_size=(5, 5), stride=(2, 2), padding=(2, 2), groups=96)
      (bn_1): BatchNorm2d(96, eps=0.001, momentum=0.03, affine=True, track_running_stats=True)
      (act_1): Hardswish()
      (conv_pw_1): Conv2d(96, 96, kernel_size=(1, 1), stride=(1, 1))
      (bn_2): BatchNorm2d(96, eps=0.001, momentum=0.03, affine=True, track_running_stats=True)
      (act_2): Hardswish()
    )
    (downsample1): DPBlock(
      (conv_dw_1): Conv2d(96, 96, kernel_size=(5, 5), stride=(2, 2), padding=(2, 2), groups=96)
      (bn_1): BatchNorm2d(96, eps=0.001, momentum=0.03, affine=True, track_running_stats=True)
      (act_1): Hardswish()
      (conv_pw_1): Conv2d(96, 96, kernel_size=(1, 1), stride=(1, 1))
      (bn_2): BatchNorm2d(96, eps=0.001, momentum=0.03, affine=True, track_running_stats=True)
      (act_2): Hardswish()
    )
    (p6_conv_1): DPBlock(
      (conv_dw_1): Conv2d(96, 96, kernel_size=(5, 5), stride=(2, 2), padding=(2, 2), groups=96)
      (bn_1): BatchNorm2d(96, eps=0.001, momentum=0.03, affine=True, track_running_stats=True)
      (act_1): Hardswish()
      (conv_pw_1): Conv2d(96, 96, kernel_size=(1, 1), stride=(1, 1))
      (bn_2): BatchNorm2d(96, eps=0.001, momentum=0.03, affine=True, track_running_stats=True)
      (act_2): Hardswish()
    )
    (p6_conv_2): DPBlock(
      (conv_dw_1): Conv2d(96, 96, kernel_size=(5, 5), stride=(2, 2), padding=(2, 2), groups=96)
      (bn_1): BatchNorm2d(96, eps=0.001, momentum=0.03, affine=True, track_running_stats=True)
      (act_1): Hardswish()
      (conv_pw_1): Conv2d(96, 96, kernel_size=(1, 1), stride=(1, 1))
      (bn_2): BatchNorm2d(96, eps=0.001, momentum=0.03, affine=True, track_running_stats=True)
      (act_2): Hardswish()
    )
  )
  (detect): Detect(
    (stems): ModuleList(
      (0-3): 4 x DPBlock(
        (conv_dw_1): Conv2d(96, 96, kernel_size=(5, 5), stride=(1, 1), padding=(2, 2), groups=96)
        (bn_1): BatchNorm2d(96, eps=0.001, momentum=0.03, affine=True, track_running_stats=True)
        (act_1): Hardswish()
        (conv_pw_1): Conv2d(96, 96, kernel_size=(1, 1), stride=(1, 1))
        (bn_2): BatchNorm2d(96, eps=0.001, momentum=0.03, affine=True, track_running_stats=True)
        (act_2): Hardswish()
      )
    )
    (cls_convs): ModuleList(
      (0-3): 4 x DPBlock(
        (conv_dw_1): Conv2d(96, 96, kernel_size=(5, 5), stride=(1, 1), padding=(2, 2), groups=96)
        (bn_1): BatchNorm2d(96, eps=0.001, momentum=0.03, affine=True, track_running_stats=True)
        (act_1): Hardswish()
        (conv_pw_1): Conv2d(96, 96, kernel_size=(1, 1), stride=(1, 1))
        (bn_2): BatchNorm2d(96, eps=0.001, momentum=0.03, affine=True, track_running_stats=True)
        (act_2): Hardswish()
      )
    )
    (reg_convs): ModuleList(
      (0-3): 4 x DPBlock(
        (conv_dw_1): Conv2d(96, 96, kernel_size=(5, 5), stride=(1, 1), padding=(2, 2), groups=96)
        (bn_1): BatchNorm2d(96, eps=0.001, momentum=0.03, affine=True, track_running_stats=True)
        (act_1): Hardswish()
        (conv_pw_1): Conv2d(96, 96, kernel_size=(1, 1), stride=(1, 1))
        (bn_2): BatchNorm2d(96, eps=0.001, momentum=0.03, affine=True, track_running_stats=True)
        (act_2): Hardswish()
      )
    )
    (cls_preds): ModuleList(
      (0-3): 4 x Conv2d(96, 1, kernel_size=(1, 1), stride=(1, 1))
    )
    (reg_preds): ModuleList(
      (0-3): 4 x Conv2d(96, 4, kernel_size=(1, 1), stride=(1, 1))
    )
  )
)
img record infomation path is:./custom_dataset/images/.train_cache.json
Train: Final numbers of valid images: 3828/ labels: 3828. 
…
